data/model_weights.pth (torch_old, 28391 bytes, 6 tensors)

fc1.weight f4 [64, 37]
0	0x3d4888ec	0.048958704
1	0x3bf31d3a	0.0074192556
2	0x3dfbbe1a	0.12292118
3	0xbe0e2ba1	-0.1388383
4	0xbd8b25eb	-0.06794342
5	0x3d9fad96	0.07796781
6	0x3ca68824	0.020328589
7	0x3cfff6ae	0.031245556
8	0x3e16fba0	0.14744425
9	0xbc9d2b82	-0.019185785
10	0x3f0f7805	0.5604251
11	0xbf8aed35	-1.085364
12	0xbe52b938	-0.20578468
13	0xbf259eb0	-0.6469526
14	0xc024d5de	-2.5755534
15	0x3e2aeb64	0.16691357
16	0x3d061752	0.032737084
17	0x3e0a9cec	0.13536423
18	0x3d95f855	0.07322756
19	0x3ccdec39	0.025137054
20	0x3dbcf5aa	0.09226544
21	0x3e86b7f8	0.26312232
22	0x3d5bff5d	0.05371033
23	0x3ded997c	0.116015404
24	0x3da2b9bd	0.07945583
25	0x3e0f0b31	0.13969113
26	0x3d1fd23e	0.039018862
27	0xbcc501ee	-0.024048772
28	0x3d6b4be5	0.057445426
29	0xbdb5fb36	-0.08885805
30	0x3dfa607d	0.12225435
31	0x3db523d5	0.08844725
32	0x3c0cd953	0.008596736
33	0xbdb10160	-0.086428404
34	0x3c8b9391	0.017038139
35	0xbce94515	-0.028475324
36	0x3c135953	0.0089934645
37	0x3e345abd	0.17612739
38	0x3e38150f	0.17976783
39	0x3e22108a	0.15826622
40	0x3de8448e	0.11341201
41	0xbd7dbf31	-0.061949912
42	0x3efdc624	0.49565232
43	0xbf8426e2	-1.0324366
44	0xbf5b316c	-0.85622287
45	0xbf89118b	-1.0708479
46	0xc0480e8c	-3.1258879
47	0x3d599af1	0.05312628
48	0x3df139c8	0.11778599
49	0x3dc033a5	0.093848504
50	0x3e2e350c	0.17012423
51	0x3d3bd39b	0.0458561
52	0x3e252c02	0.16130069
53	0x3d82c5b5	0.06385366
54	0x3e2b58b4	0.16733056
55	0x3e049873	0.1294878
56	0xbd400982	-0.046884067
57	0xbc307f2b	-0.010772507
58	0xbc9f2d5e	-0.019430812
59	0x3bcee0ad	0.0063134045
60	0x3e05d861	0.13070823
61	0x3dc6d092	0.097077504
62	0x3dbd8060	0.09253001
63	0x3e56138c	0.20905894
64	0x3d2aecb9	0.041729663
65	0x3dea5604	0.114421874
66	0x3c96e7a8	0.01842101
67	0x3da3c5ff	0.07996749
68	0x3d13643a	0.035984255
69	0x3e82942b	0.25503668
70	0x3f01c32a	0.5068842
71	0x3e85e2d1	0.2614961
72	0xbb076cad	-0.002066414
73	0x3ba9fded	0.005187741
74	0x3e24484e	0.16043207
75	0x3e44e25f	0.19226979
76	0x3d4c99c8	0.049951345
77	0xbecc0a89	-0.39851788
78	0x3dcd4c81	0.100243576
79	0xbeb24ec7	-0.34825727
80	0xbeabe476	-0.3357274
81	0x3e240f03	0.16021352
82	0x3eb8c416	0.36087102
83	0x3ddb6fd6	0.107146904
84	0x3d9579b1	0.072986014
85	0x3db4b4eb	0.0882357
86	0xbebd31df	-0.3695211
87	0x3c8ba6bf	0.017047284
88	0xbf146029	-0.5795923
89	0xbe04f408	-0.12983716
90	0x3e489757	0.19588982
91	0xbeaa6663	-0.3328124
92	0x3e16072b	0.14651172
93	0x3ee38ef1	0.44444993
94	0xbee6c636	-0.45073098
95	0xbd45b24a	-0.048265733
96	0x3d24f65a	0.040274
97	0x3e4441ed	0.19165774
98	0xbe18d6ef	-0.1492574
99	0xbec13311	-0.37734273
100	0x3e94bab9	0.29048708
101	0x3e528df1	0.20561959
102	0xbe8c71ef	-0.27430674
103	0x3e5e36e8	0.21700633
104	0xbe65fcff	-0.22459792
105	0x3e61e7eb	0.22061126
106	0xbe664aa9	-0.22489418
107	0xbeda8b3e	-0.42684358
108	0x3ea4e29a	0.32204133
109	0xbd708bb1	-0.05872697
110	0xbd476f09	-0.048689876
111	0x3d186c22	0.0372125
112	0xbe9b14e4	-0.30289376
113	0x3d37552f	0.04475897
114	0xbda6132e	-0.08109127
115	0xbecfdf4a	-0.40600044
116	0xbdc2ca63	-0.095112585
117	0xbe83800e	-0.25683635
118	0x3d793b82	0.060847767
119	0xbf09e88d	-0.5387047
120	0xc021c79a	-2.5278077
121	0xbe85a74b	-0.26104197
122	0xbe363054	-0.17791873
123	0x3e2a6027	0.16638242
124	0xbe758124	-0.23975044
125	0xbf098511	-0.5371867
126	0xbf0786e6	-0.52940214
127	0xbe1f0935	-0.15530856
128	0x3d6ad600	0.057332993
129	0xbf29a144	-0.66261697
130	0xbf534a49	-0.82535225
131	0xbf0bbfaf	-0.5458936
132	0xbf20a541	-0.6275216
133	0x3e804c0d	0.25058022
134	0xbf0da4f9	-0.55329853
135	0xbf1a90ff	-0.60377496
136	0xbf9b2354	-1.2120156
137	0xbf1fad5f	-0.6237392
138	0x3e7196b9	0.23592652
139	0xbea0155e	-0.31266302
140	0xc037c0a5	-2.871133
141	0xbf2e3bea	-0.6806017
142	0xbea89dbf	-0.3293285
143	0x3ea842b0	0.3286338
144	0xbf1168dd	-0.56800634
145	0xbfb75720	-1.4323463
146	0x3f0e10be	0.55494297
147	0x3d1f6359	0.038913105
148	0xbd6d0ac9	-0.057871614
149	0xbe94d297	-0.29066917
150	0xbe70bf97	-0.23510586
151	0xbe9e633f	-0.30935094
152	0xbe35b24a	-0.17743793
153	0xbdaa70ed	-0.0832232
154	0x3e42b40a	0.19013992
155	0xbdd6fb26	-0.104971215
156	0xbe6dcc81	-0.23222543
157	0xbe281c41	-0.16417028
158	0xbc5f675f	-0.013635485
159	0xbe084f1e	-0.13311431
160	0xbe0e0a38	-0.13871086
161	0xbeecbd65	-0.46238247
162	0xbea03e00	-0.31297302
163	0xbde02d0c	-0.10946092
164	0xbe22e1ff	-0.15906523
165	0xbe21221a	-0.15735665
166	0xbdce858b	-0.10084065
167	0x3df75665	0.12077025
168	0xbecb019d	-0.39649668
169	0xbe6c4b36	-0.23075566
170	0x3dbc06c0	0.09180975
171	0x3e358751	0.177274
172	0x3df8d78e	0.12150489
173	0xbea3277b	-0.3186606
174	0x3dd1b1b2	0.10238971
175	0xbc9cc35b	-0.019136121
176	0x3c965f03	0.018355852
177	0x3e684f6b	0.22686546
178	0xbcc64d2d	-0.024206722
179	0xbb807cf3	-0.003921145
180	0xbe52a484	-0.2057057
181	0x3e49c386	0.19703493
182	0x3ef4987e	0.47772592
183	0x3e941da3	0.2892886
184	0x3dd74e6e	0.10513006
185	0x3e9f42ca	0.31105644
186	0x3e435d72	0.19078615
187	0xbf6368f9	-0.8883205
188	0xbf0f131a	-0.5588852
189	0xbfda6e1e	-1.7064855
190	0xbe3e3b93	-0.18577413
191	0x3e1daef4	0.1539877
192	0x3da95528	0.082681954
193	0xbd38bebd	-0.045103777
194	0xbe19cf1e	-0.15020415
195	0xbf10121b	-0.56277627
196	0x3e390ae0	0.18070555
197	0x3e7fb9b5	0.24973185
198	0xbeeec595	-0.46635118
199	0xbf00b8ba	-0.5028187
200	0xbd165057	-0.03669771
201	0xbdfb9308	-0.12283903
202	0xbd8b0121	-0.06787325
203	0x3e54b9bd	0.20773979
204	0x3f0c548e	0.5481652
205	0x3e227465	0.15864713
206	0x3d44abba	0.048015334
207	0xbea20e2d	-0.3165144
208	0x3e85f199	0.26160887
209	0xbe35f7d8	-0.17770326
210	0x3d4c952f	0.04994696
211	0xbe3975ce	-0.18111345
212	0xbe044201	-0.12915803
213	0xbe482b7b	-0.19547836
214	0x3eb8c0ed	0.3608469
215	0xbe70805c	-0.23486465
216	0xbed743f6	-0.42044038
217	0x3e7eb822	0.24874929
218	0x3e1071da	0.14105931
219	0xbf00548c	-0.5012901
220	0x3de23613	0.1104547
221	0xbd393fe8	-0.04522696
222	0x3e7e8267	0.24854432
223	0x3daf9ae3	0.08574464
224	0xbde7337b	-0.11289116
225	0xbf367a42	-0.712803
226	0x3dcfe4ce	0.10151063
227	0xbebd38a4	-0.36957276
228	0xbdbcc3a3	-0.09217002
229	0x3e0b8ca1	0.13627864
230	0x3d9e85bd	0.07740352
231	0xbef8310c	-0.4847492
232	0x3dcad186	0.09903245
233	0x3e42228e	0.18958494
234	0xbebc8e03	-0.36827096
235	0x3e5f948e	0.21834013
236	0x3ee6cee4	0.4507972
237	0xbdb63cf5	-0.088983454
238	0xbe0a4d03	-0.1350594
239	0x3e3a074f	0.1816685
240	0xbe386679	-0.1800784
241	0x3e03a8f6	0.12857422
242	0x3e310809	0.17288221
243	0xbe6257ee	-0.22103855
244	0x3d981392	0.07425608
245	0xbe611c22	-0.21983388
246	0x3e7d8930	0.24759364
247	0xbe7c76be	-0.24654672
248	0x3d91951a	0.07108517
249	0xbd3eafee	-0.0465545
250	0xbe28663a	-0.16445246
251	0x3dbeee6a	0.093228176
252	0xbefe12f0	-0.49623823
253	0x3e185bc2	0.14878753
254	0x3eae80a4	0.3408252
255	0xbe83df73	-0.25756416

fc1.bias f4 [64]
0	0x3e6a18c3	0.22861008
1	0x3dcf9698	0.10136145
2	0xbe59d4ea	-0.21272627
3	0xbd5edf41	-0.05441213
4	0xbc3489ec	-0.011019211
5	0xbd3e427d	-0.046450127
6	0xbe116ec0	-0.14202404
7	0xbc88ac8a	-0.016683836
8	0x3e202103	0.15637593
9	0xbea34dd1	-0.31895307
10	0x3d404f5f	0.046950694
11	0x3e3ce076	0.18445
12	0x3e15f9a4	0.14646012
13	0xbcbcd326	-0.023049902
14	0xbc454fe2	-0.012042971
15	0xbe0fde55	-0.14049657
16	0x3add0ad5	0.001686419
17	0xbc7cf611	-0.015439526
18	0xbda496c3	-0.08036568
19	0xbe759ade	-0.23984858
20	0xbe2d19fa	-0.1690444
21	0x3e205e53	0.15660982
22	0x3d505df2	0.050870843
23	0xbd896b03	-0.06709864
24	0xbe03565f	-0.12825917
25	0x3e43721f	0.19086502
26	0xbe06c8e2	-0.13162568
27	0xbde90354	-0.11377588
28	0x3dc64727	0.0968154
29	0x3cbcef8e	0.023063447
30	0xbb963445	-0.0045838677
31	0xbe6a250b	-0.22865693
32	0x3df3d93c	0.119066685
33	0xbd345ca5	-0.044033665
34	0xbe9d600a	-0.30737334
35	0x3d8bc714	0.068250805
36	0xbd418859	-0.047249172
37	0x3c9748e2	0.01846737
38	0xbc24fdb3	-0.010070252
39	0xbe15526f	-0.14582227
40	0xbe260f31	-0.16216733
41	0x3dc895f8	0.09794229
42	0xbd926f3e	-0.07150124
43	0x3e023ae8	0.12717783
44	0x3dcdbf6c	0.100462765
45	0xbe1a4ca8	-0.15068305
46	0xbd92fee5	-0.071775235
47	0xbdbca5b8	-0.09211296
48	0xbdff7013	-0.12472548
49	0x3e5c09b1	0.21488072
50	0xbe70647f	-0.23475836
51	0x3e037a59	0.1283964
52	0x3d0460da	0.032318927
53	0xbe45040d	-0.19239827
54	0xbe56bd4e	-0.20970652
55	0xbde83ec4	-0.113400966
56	0x3e0e8f52	0.1392186
57	0xbe40177f	-0.18758963
58	0xbdac6874	-0.0841836
59	0xbe243552	-0.16035965
60	0x3e081a50	0.13291287
61	0xbd6984bf	-0.057011362
62	0x3c3f0ced	0.011660797
63	0x3d4c4ddd	0.049878944

fc2.weight f4 [64, 64]
0	0xbeb4a644	-0.352831
1	0xbdce52d5	-0.10074393
2	0x3e1952a3	0.1497293
3	0x3d5efb87	0.054439094
4	0x3d542c63	0.051800143
5	0xbe8f2c9c	-0.27963722
6	0x3e18711c	0.14886898
7	0xbf86d23c	-1.0532908
8	0xbe698b28	-0.2280699
9	0x3e0ac8e3	0.13553195
10	0xbdf4d843	-0.11955311
11	0xbf42c571	-0.7608252
12	0xbf272b9f	-0.65300936
13	0x3f0dd6fc	0.55406165
14	0xbea5dfa8	-0.323972
15	0xbe6953dd	-0.22785898
16	0xbeca193b	-0.39472374
17	0xbf86d145	-1.0532614
18	0xbf05699d	-0.5211428
19	0xbe918eeb	-0.2842935
20	0xbe40ecf2	-0.18840387
21	0xbe7334a3	-0.23750548
22	0xbe7beff3	-0.24603252
23	0xbe9fc212	-0.3120275
24	0x3d15d3ea	0.03657905
25	0xbf03bd2a	-0.51460516
26	0x3e31de62	0.17369989
27	0x3f47af55	0.7800191
28	0xbde80c31	-0.1133045
29	0xbe1a20b1	-0.15051533
30	0xbe1fd661	-0.15609123
31	0xbf461cb2	-0.77387536
32	0xbea1cb78	-0.31600547
33	0x3d75536a	0.059894003
34	0xbec7edaa	-0.3904851
35	0xbe2ce9fa	-0.1688613
36	0x3ca72a36	0.02040587
37	0x3e4f54dd	0.20247217
38	0xbeae53c1	-0.34048274
39	0xbe5a6643	-0.21328072
40	0xbf45c1bd	-0.77248746
41	0xbeb94460	-0.36184978
42	0xbee47dd5	-0.44627252
43	0xbf83245a	-1.0245469
44	0x3ee3a4aa	0.44461566
45	0xbee2b386	-0.4427759
46	0xbf6ae745	-0.9175914
47	0xbf2f314e	-0.6843461
48	0xbf4b0b23	-0.7931387
49	0xbf056703	-0.5211031
50	0x3df2564d	0.11832867
51	0x3df7e591	0.12104333
52	0xbed0645c	-0.40701568
53	0xbe2e0dd5	-0.16997464
54	0x3ec611a6	0.3868534
55	0x3e7f3a2b	0.24924533
56	0x3dce9e7b	0.100888215
57	0x3e68eb8d	0.22746105
58	0xbfa7cc32	-1.310919
59	0xbe1725ef	-0.14760564
60	0x3e694602	0.22780612
61	0xbd8cc487	-0.06873422
62	0xbebb23e5	-0.36550823
63	0xbf31252e	-0.69197357
64	0xbcc4fab3	-0.024045324
65	0x3d83785f	0.06419443
66	0xbf624fa0	-0.8840275
67	0xbd70725e	-0.05870282
68	0xbe9174a6	-0.28409308
69	0xbd64b97f	-0.055840965
70	0x3dab8495	0.083748974
71	0x3dcae3b3	0.099067114
72	0xbe04f5aa	-0.12984338
73	0xbe20ec36	-0.15715107
74	0xbd4a697e	-0.04941701
75	0x3e5495e6	0.20760307
76	0x3e705dad	0.23473234
77	0x3e3995c7	0.18123542
78	0xbce55367	-0.02799387
79	0x3e3d3b4f	0.18479656
80	0x3eb5f0bf	0.35535237
81	0x3d3faf32	0.04679794
82	0x3e1d4b0e	0.15360662
83	0xbf6a82b1	-0.9160567
84	0x3e053053	0.13006715
85	0xbf32a4d9	-0.6978279
86	0xbdd73c00	-0.10509491
87	0xbf80ccc3	-1.0062488
88	0xbdf5e63a	-0.12006803
89	0x3cf190c8	0.029487982
90	0xbee80401	-0.45315555
91	0xbf562470	-0.8364935
92	0x3e7b4bee	0.24540684
93	0xbd88c10b	-0.06677445
94	0x3e8d0a4d	0.2754692
95	0xbf5f677d	-0.87267286
96	0x3e262480	0.16224861
97	0x3e43d5c4	0.19124514
98	0x3dd63b14	0.10460487
99	0xbf6d5f15	-0.9272321
100	0x3b73989d	0.0037169822
101	0x3c1a691c	0.009424474
102	0x3e80834f	0.2510018
103	0xbf490153	-0.78517646
104	0xbe9f07c1	-0.31060603
105	0x3e2d0d0f	0.16899513
106	0x3c9f6b62	0.019460384
107	0xbeaf2acd	-0.34212342
108	0xbebec0cc	-0.37256467
109	0xbee913f3	-0.45523033
110	0xbe8734ca	-0.26407462
111	0xbf149a81	-0.58048254
112	0xbeb12f9d	-0.3460664
113	0xbee81c5b	-0.45334134
114	0xbe210c28	-0.15727293
115	0x3c70901e	0.014682798
116	0xbea43e4f	-0.32078788
117	0xbd96a79c	-0.07356188
118	0xbf1eb900	-0.6200104
119	0xbcaa1e0d	-0.020766282
120	0xbc40bef3	-0.011764276
121	0xbe30e652	-0.1727536
122	0xbe223d6b	-0.15843742
123	0xbf134851	-0.5753222
124	0xbea2d610	-0.31803942
125	0x3eaac0f0	0.33350325
126	0xbdeb2af9	-0.11482806
127	0xbf4996c3	-0.7874567
128	0x3d86f8be	0.065904126
129	0xbf27fc8b	-0.65619725
130	0x3e47b3ea	0.19502226
131	0x3e529379	0.20564069
132	0xbe29a084	-0.16565138
133	0xbf888fa2	-1.0668833
134	0xbe47c4c0	-0.19508648
135	0xbd8ed71b	-0.06974622
136	0xbe099c97	-0.1343864
137	0xbd768473	-0.060184907
138	0x3ea630eb	0.32459196
139	0xbe2bec74	-0.16789418
140	0x3e2d727b	0.16938202
141	0xbec6f97b	-0.38862213
142	0xbea8a994	-0.32941878
143	0xbea142a8	-0.31496167
144	0xbec57938	-0.38569045
145	0x3f1f895b	0.6231896
146	0x3e540c85	0.20707901
147	0x3b864c88	0.0040984787
148	0xbb592071	-0.003313091
149	0xbeba5ebe	-0.36400408
150	0x3dc0083c	0.093765706
151	0xbc37ec86	-0.011225825
152	0xbf03547e	-0.513008
153	0x3e77cb3e	0.24198624
154	0x3e6a8b98	0.22904813
155	0x3e440e73	0.19146137
156	0xbdf61b70	-0.12016952
157	0xbe5396d6	-0.20663008
158	0x3d3dd6e3	0.04634751
159	0x3c917abd	0.017758721
160	0x3e018199	0.12647094
161	0x3d566742	0.052344568
162	0xbf2147e6	-0.63000333
163	0x3bf9e40f	0.0076260637
164	0xbd5ae92f	-0.053445037
165	0x3d4783a2	0.04870952
166	0xbd524c8b	-0.05134253
167	0xbe99c96b	-0.30036482
168	0x3e4043ee	0.18775913
169	0x3f157496	0.5838102
170	0xbebd7ab6	-0.37007684
171	0x3d8babf0	0.06819904
172	0xbd4b7a0c	-0.04967694
173	0xbe1381bb	-0.14404957
174	0xbe4b4bd1	-0.1985314
175	0xbf4892d1	-0.78349024
176	0xbed93f45	-0.42431083
177	0xbe86fcc8	-0.26364732
178	0xbdd45357	-0.10367458
179	0x3f1e14a1	0.6175023
180	0xbeeaf85b	-0.45892605
181	0x3f118f46	0.5685924
182	0xbdc5293b	-0.09627005
183	0xbe33841b	-0.17530863
184	0xbea486bb	-0.3213404
185	0xbdcf4943	-0.101213954
186	0xbdf56a1b	-0.11983129
187	0xbd2ede8c	-0.042692706
188	0xbcc4e293	-0.02403382
189	0x3e0b89e7	0.13626824
190	0x3c6891de	0.014194934
191	0xbe4b19a7	-0.19834004
192	0x3e2a796e	0.16647884
193	0x3d602d6d	0.05473082
194	0x3e57a37f	0.21058463
195	0x3e9391d4	0.28822196
196	0xbe48af21	-0.19598056
197	0xbe8fdc67	-0.2809784
198	0xbe7589be	-0.23978326
199	0xbd65335a	-0.055957176
200	0x3d5a5a32	0.053308673
201	0xbee1729c	-0.44032753
202	0xbee52fa3	-0.44762906
203	0x3ee531fe	0.44764704
204	0xbe54ce1b	-0.20781748
205	0x3f03572b	0.5130488
206	0xbe9060e7	-0.2819893
207	0xbe36bcf8	-0.17845523
208	0xbf136641	-0.575779
209	0xbebe1771	-0.3712726
210	0xbe588094	-0.21142799
211	0x3dcc2d3f	0.099695675
212	0xbc96d081	-0.01840997
213	0xbef3436f	-0.47512385
214	0xbde3b0c3	-0.11117699
215	0xbe846765	-0.25860134
216	0x3eb38a79	0.35066584
217	0xbe6ba846	-0.2301341
218	0xbcfc51a7	-0.030800654
219	0x3ca2d39a	0.01987629
220	0x3e65f2ff	0.22455977
221	0x3d13c7e4	0.036079302
222	0x3f25e08b	0.6479575
223	0xbe036e06	-0.1283494
224	0x3e092148	0.13391602
225	0xbb9b9e68	-0.004749108
226	0xbd8f408e	-0.06994735
227	0xbdd5a423	-0.10431697
228	0xbe38a87a	-0.18033019
229	0x3c872447	0.01649679
230	0x3dc7944d	0.09745083
231	0x3d79fee9	0.061034117
232	0xbea43977	-0.32075092
233	0xbcc5e620	-0.024157584
234	0x3ea74dfa	0.3267668
235	0xbd125f95	-0.035735685
236	0xbecae303	-0.3962632
237	0xbe379e66	-0.17931518
238	0xbd747da9	-0.05969015
239	0xbe731f1f	-0.2374234
240	0x3dfc4649	0.12318093
241	0x3d05d3c8	0.032672673
242	0xbf36e546	-0.71443594
243	0x3e9160cd	0.28394166
244	0xbcf6f075	-0.030143956
245	0x3f650844	0.8946574
246	0xbe4bf384	-0.19917113
247	0xbcaf47ad	-0.021396482
248	0xbe993aaa	-0.2992757
249	0xbe8010ca	-0.2501281
250	0xbd19c4c8	-0.03754118
251	0x3c1c4ac3	0.009539309
252	0xbf276b08	-0.6539769
253	0x3df65f3d	0.12029884
254	0xb9d08302	-0.0003977046
255	0xbe993beb	-0.29928526

fc2.bias f4 [64]
0	0x3dc3b1ac	0.095553726
1	0xbe9e7126	-0.309457
2	0xbe4e827a	-0.2016696
3	0xbe737921	-0.23776676
4	0x3dcd4bef	0.10024249
5	0xbec5f337	-0.3866212
6	0xbc4be6d7	-0.012445173
7	0xbebfdb88	-0.37472177
8	0x3cafa826	0.021442484
9	0x3f63019e	0.8867434
10	0xbe447c52	-0.1918805
11	0x3e870d17	0.26377174
12	0x3d5ec901	0.05439091
13	0xbd82cd5d	-0.06386826
14	0xbe0948e1	-0.13406707
15	0xbdc72058	-0.09722966
16	0xbdbec9ce	-0.09315835
17	0xbce3b449	-0.027795928
18	0xbe09b283	-0.13447003
19	0x3db52aa2	0.08846022
20	0x3c4aefd3	0.01238628
21	0x3f400e32	0.7502166
22	0xbe879511	-0.26480916
23	0xbe5e3cad	-0.21702833
24	0xbe341d56	-0.17589316
25	0xbe093ace	-0.13401338
26	0xbd083928	-0.033257633
27	0xbe7edd73	-0.24889164
28	0xbe1f46af	-0.15554307
29	0x3e0cbfcb	0.13745038
30	0x3cacb5db	0.02108281
31	0xbc12883a	-0.008943612
32	0xbe5f169d	-0.2178597
33	0x3e6cb1a5	0.23114641
34	0xba7cce44	-0.0009643773
35	0xbdda3bee	-0.10655962
36	0x3db5d190	0.088778615
37	0xbe394509	-0.18092741
38	0x3e04b1f2	0.12958506
39	0xbe3468d6	-0.17618117
40	0xbe12029e	-0.14258811
41	0x3ed1fcdc	0.4101323
42	0x3e3d232c	0.18470448
43	0xbec37e12	-0.38182122
44	0x3dc8988e	0.097947225
45	0xbe8cdefd	-0.27513877
46	0x3e4218b9	0.18954743
47	0xbe600742	-0.21877769
48	0x3cb64ad7	0.022252483
49	0xbe445bad	-0.19175597
50	0xbbd72bc0	-0.0065664947
51	0x3dec11a8	0.11526805
52	0xbe9e8457	-0.30960342
53	0xbbec3f07	-0.007209662
54	0x3ed455f3	0.41471824
55	0xbe587615	-0.21138795
56	0xbe8e7112	-0.2782064
57	0xbea07abc	-0.3134364
58	0xbe0df63e	-0.13863465
59	0xbd95524c	-0.072910875
60	0xbd9b9507	-0.07596784
61	0x3dc1ecb8	0.09468979
62	0x3d9a1211	0.07522977
63	0xbe5e6392	-0.2171767

fc3.weight f4 [4, 64]
0	0xba89b1e1	-0.0010505283
1	0x3dd6e7cd	0.10493431
2	0xbec8fb5e	-0.39254278
3	0xbebaf74c	-0.36516798
4	0x3dd3683c	0.103226155
5	0xbe6cf7e6	-0.23141441
6	0xbef929f9	-0.48664835
7	0xbe4a7342	-0.1977053
8	0x3e606143	0.21912102
9	0x3e8544ff	0.26029202
10	0xbf335cfc	-0.7006376
11	0x3c38f280	0.011288285
12	0x3dd69937	0.10478442
13	0x3e9ea4c9	0.30985096
14	0x3ca8dc9e	0.020613011
15	0xbe188364	-0.14893872
16	0x3c5ba8a4	0.013406906
17	0x3e30c68c	0.1726324
18	0xbcaa2113	-0.020767724
19	0x3d6c0918	0.05762586
20	0x3e9a3284	0.30116665
21	0x3e0dd62c	0.13851231
22	0x3d6fee15	0.058576662
23	0xbf0a3f8b	-0.5400321
24	0x3e0d175d	0.13778444
25	0xbda8a030	-0.08233678
26	0xbe1755a1	-0.14778759
27	0xbe7bc225	-0.24585779
28	0x3ea453d8	0.32095218
29	0x3e857efd	0.26073447
30	0x3de3ac28	0.111168206
31	0x3e22dbf0	0.15904212
32	0x3f202747	0.6255993
33	0x3dd89754	0.105757385
34	0x3e2c7508	0.16841519
35	0x39f7aa25	0.0004723828
36	0x3ec8ad0a	0.39194518
37	0x3dc51ac4	0.09624246
38	0xbdd941a3	-0.10608222
39	0x3df3504b	0.11880549
40	0xbe4a13d0	-0.1973412
41	0x3dd7aea6	0.105313584
42	0x3e939705	0.28826156
43	0xbe5b1390	-0.21394181
44	0x3ed5ac15	0.4173285
45	0xbe2e8456	-0.1704267
46	0x3e73b96e	0.23801205
47	0x3dd5b0bc	0.104341
48	0x3edce677	0.4314458
49	0x3ca79165	0.020455072
50	0x3c8ccbbb	0.01718699
51	0x3e9adf16	0.30248326
52	0xb68b5dc1	-4.153437e-06
53	0xbf0f4e18	-0.55978537
54	0x3e3b8454	0.18312198
55	0x3eef8f53	0.46789035
56	0xbf0d99ea	-0.5531298
57	0x3ddce085	0.10785011
58	0x3eea6f10	0.4578786
59	0xbd0b84c5	-0.034062166
60	0xbe4af374	-0.19819432
61	0xbe09d7d8	-0.13461244
62	0x3c5c5e2f	0.0134501895
63	0xbe4725e5	-0.1944805
64	0x3e04b0b1	0.12958027
65	0xbe73ddee	-0.23815128
66	0xbe781821	-0.24227954
67	0x3e3aca08	0.18241131
68	0xbe10ae80	-0.14129066
69	0xbe437455	-0.19087346
70	0xbdb38b2e	-0.08766781
71	0xbe54d14e	-0.20782968
72	0x3ec87323	0.39150342
73	0x3e89dbea	0.26925594
74	0x3e6a786e	0.22897503
75	0x3c8cbbca	0.017179389
76	0x3e0f51ea	0.13996091
77	0x3ef1d843	0.47235307
78	0x3df841bf	0.12121915
79	0x3ed89780	0.42303085
80	0xbd84a61f	-0.064769976
81	0xbf4a6260	-0.7905636
82	0xbce6508e	-0.028114583
83	0x3d9937ce	0.07481347
84	0x3efb1461	0.49038985
85	0x3e161c40	0.14659214
86	0xbdc96595	-0.09833828
87	0x3e7db1d8	0.24774873
88	0xbecf1ea2	-0.40453058
89	0xbd9356d0	-0.071942925
90	0xbde5f518	-0.112283885
91	0xbea194dd	-0.31558886
92	0xbf15346b	-0.5828311
93	0x3e8ed0da	0.27893716
94	0xbd09669e	-0.03354513
95	0x3e4f9246	0.20270643
96	0xbf3d8d59	-0.74043804
97	0x3e2aadfb	0.16667931
98	0x3e5f1d3a	0.21788493
99	0xbd8857aa	-0.066573456
100	0x3e9413e7	0.28921434
101	0xbed4522c	-0.41468942
102	0x3e872cf3	0.2640148
103	0xbf61721a	-0.8806473
104	0x3e06cfb4	0.1316517
105	0x3de93fff	0.113891594
106	0x3e8868e9	0.2664254
107	0xbe8694b6	-0.26285332
108	0x3edf8623	0.43657026
109	0xbe2ba1c0	-0.16760921
110	0x3e6ae1ae	0.22937652
111	0xbac600ff	-0.0015106498
112	0x3eab991e	0.33515257
113	0x3ea99864	0.33124077
114	0x3ebe708a	0.37195235
115	0x3ef8aef0	0.48570967
116	0xbb01d193	-0.0019808754
117	0x3e5867d9	0.21133365
118	0x3dd619df	0.10454153
119	0x3f50baf3	0.8153526
120	0xbe51f46c	-0.20503396
121	0xba0d9400	-0.0005400777
122	0x3e137130	0.14398646
123	0xbe0adec9	-0.13561548
124	0xbec963be	-0.3933391
125	0xbf2c86c5	-0.6739314
126	0xbcfa7a2b	-0.030575832
127	0x3f4c2866	0.79749143
128	0xbf337836	-0.701053
129	0x3f178fd9	0.5920387
130	0xbeafda4b	-0.34346232
131	0xbcfdd995	-0.03098754
132	0x3e736777	0.23769937
133	0xbe9c0b75	-0.3047749
134	0x3f18b829	0.59656006
135	0xbe315144	-0.17316157
136	0x3d78841a	0.060672857
137	0x3e85b7eb	0.2611688
138	0xbecb28ea	-0.39679652
139	0x3e270689	0.16311087
140	0x3e7e472d	0.24831839
141	0x3e822db9	0.2542551
142	0xbe5fc731	-0.21853329
143	0x3f04610e	0.51710594
144	0xbb8fd79d	-0.004389717
145	0x3e968137	0.29395458
146	0x3cc4a222	0.024003092
147	0x3e53244c	0.20619315
148	0x3e8e19f7	0.27754185
149	0x3e6bb979	0.23019971
150	0xbef54293	-0.47902355
151	0x3eb33bb5	0.3500649
152	0x3f0931d4	0.53591657
153	0xbd1cfa2e	-0.038324527
154	0xbdc5fdd0	-0.096675515
155	0xbdb3ff1a	-0.08788891
156	0x3ec365da	0.38163644
157	0x3e8b562f	0.2721419
158	0xbe0703d4	-0.13185054
159	0xbc048049	-0.008087226
160	0xbe23c36e	-0.1599252
161	0x3ca08568	0.019594863
162	0x3eb96c79	0.3621557
163	0x3daeaa7c	0.08528611
164	0x3e604691	0.21901919
165	0xbef3712f	-0.4754729
166	0xbe965b4d	-0.29366532
167	0xbecab81f	-0.39593598
168	0x3f2ee188	0.68312883
169	0x3cb00c0e	0.021490123
170	0x3e0ef182	0.13959315
171	0x3d12faf9	0.035883877
172	0x3e8dde96	0.27708882
173	0xbea21adf	-0.31661126
174	0x3e6c884c	0.23098868
175	0xbc78c140	-0.015182793
176	0x3eac516a	0.33655864
177	0x3e3c686a	0.18399206
178	0x3de6d514	0.1127111
179	0x3f3279e1	0.6971722
180	0x3e055461	0.13020469
181	0x3ddc7aab	0.107655846
182	0x3e3cf3e6	0.18452415
183	0x3e8f7b6c	0.2802385
184	0x3dfffb0c	0.12499055
185	0xbf01a3e9	-0.5064073
186	0xbe331639	-0.17488946
187	0xbebe8996	-0.37214345
188	0xbf59162a	-0.84799445
189	0xbdc657e5	-0.09684733
190	0xbf02b5d3	-0.5105869
191	0xbebc690e	-0.367989
192	0x3f2041ba	0.6260029
193	0x3f06fa31	0.5272551
194	0xbe5b40cd	-0.21411438
195	0xbf1781b4	-0.59182286
196	0x3de6dc26	0.11272459
197	0xbd8123f4	-0.06305686
198	0x3ca85a41	0.020550849
199	0xbe8c994d	-0.2746071
200	0x3ef0dbad	0.470426
201	0x3e80a4ab	0.25125632
202	0xbdc2c3d1	-0.09510005
203	0xb9f8f541	-0.00047484974
204	0x3e499e68	0.19689333
205	0xbec3f941	-0.38276103
206	0x3ebf22fd	0.3733138
207	0xbe9119fd	-0.2834014
208	0x3e14a9ab	0.14517848
209	0xbf29157a	-0.66048396
210	0x3dccbdeb	0.099971615
211	0x3e6ab0ea	0.2291905
212	0x3e03d77a	0.12875167
213	0x3e887be4	0.2665702
214	0xbedc50a1	-0.43030265
215	0xbd436cb9	-0.047711108
216	0xbd853c24	-0.065056115
217	0xbd6fb78a	-0.058524646
218	0xbe8686f6	-0.26274842
219	0xbecb7568	-0.3973801
220	0x3f054dc7	0.52071804
221	0x3e8ec2f4	0.27883112
222	0xbdde02ab	-0.108403526
223	0x3e413f33	0.18871765
224	0xbe7b5666	-0.24544677
225	0x3e050506	0.12990198
226	0x3e29e59c	0.16591495
227	0x3c5e43ba	0.013565952
228	0x3da017b0	0.07817018
229	0x3f1210f9	0.5705715
230	0xbf080e95	-0.5314725
231	0x3ea02641	0.31279185
232	0xbdca5666	-0.098797604
233	0x3dff8dc6	0.12478213
234	0x3e8bcba1	0.27303794
235	0xbeb3e86f	-0.3513827
236	0x3ef42ac0	0.47688866
237	0xbe804f9f	-0.25060746
238	0x3dd4c6dd	0.10389493
239	0x3d3ca001	0.04605103
240	0x3e7f2545	0.24916561
241	0x3e73091c	0.23733944
242	0x3ef357ac	0.47527826
243	0xbd18aaa5	-0.037272114
244	0x3e1b2455	0.15150578
245	0x3ee62fba	0.44958287
246	0x3e1b27ee	0.1515195
247	0x3ee422b4	0.44557726
248	0x3eb8129d	0.359517
249	0xbef66792	-0.48125893
250	0xbeca4833	-0.3950821
251	0xbf9160c7	-1.1357659
252	0x3dff7bd3	0.124747895
253	0xbf19a1b7	-0.6001238
254	0xbed7ee77	-0.42174122
255	0xbd4db980	-0.050225735

fc3.bias f4 [4]
0	0x3f2f6faa	0.6852976
1	0x3f165f8a	0.5873953
2	0x3f1219b5	0.57070476
3	0x3f113ed4	0.56736493
